{"keras_version": "2.1.5", "config": [{"config": {"name": "model_1", "layers": [{"config": {"batch_input_shape": [null, 224, 224, 1], "name": "input_1", "sparse": false, "dtype": "float32"}, "name": "input_1", "class_name": "InputLayer", "inbound_nodes": []}, {"config": {"activation": "relu", "dilation_rate": [1, 1], "kernel_initializer": {"config": {"seed": null, "mode": "fan_avg", "distribution": "uniform", "scale": 1.0}, "class_name": "VarianceScaling"}, "kernel_constraint": null, "trainable": true, "activity_regularizer": null, "filters": 64, "data_format": "channels_last", "padding": "same", "use_bias": true, "bias_initializer": {"config": {}, "class_name": "Zeros"}, "kernel_size": [7, 7], "bias_regularizer": null, "kernel_regularizer": {"config": {"l1": 0.0, "l2": 0.00019999999494757503}, "class_name": "L1L2"}, "name": "conv1/7x7_s2", "bias_constraint": null, "strides": [2, 2]}, "name": "conv1/7x7_s2", "class_name": "Conv2D", "inbound_nodes": [[["input_1", 0, 0, {}]]]}, {"config": {"padding": "same", "name": "pool1/3x3_s2", "strides": [2, 2], "trainable": true, "pool_size": [3, 3], "data_format": "channels_last"}, "name": "pool1/3x3_s2", "class_name": "MaxPooling2D", "inbound_nodes": [[["conv1/7x7_s2", 0, 0, {}]]]}, {"config": {"activation": "relu", "dilation_rate": [1, 1], "kernel_initializer": {"config": {"seed": null, "mode": "fan_avg", "distribution": "uniform", "scale": 1.0}, "class_name": "VarianceScaling"}, "kernel_constraint": null, "trainable": true, "activity_regularizer": null, "filters": 64, "data_format": "channels_last", "padding": "same", "use_bias": true, "bias_initializer": {"config": {}, "class_name": "Zeros"}, "kernel_size": [1, 1], "bias_regularizer": null, "kernel_regularizer": {"config": {"l1": 0.0, "l2": 0.00019999999494757503}, "class_name": "L1L2"}, "name": "conv2/3x3_reduce", "bias_constraint": null, "strides": [1, 1]}, "name": "conv2/3x3_reduce", "class_name": "Conv2D", "inbound_nodes": [[["pool1/3x3_s2", 0, 0, {}]]]}, {"config": {"activation": "relu", "dilation_rate": [1, 1], "kernel_initializer": {"config": {"seed": null, "mode": "fan_avg", "distribution": "uniform", "scale": 1.0}, "class_name": "VarianceScaling"}, "kernel_constraint": null, "trainable": true, "activity_regularizer": null, "filters": 192, "data_format": "channels_last", "padding": "same", "use_bias": true, "bias_initializer": {"config": {}, "class_name": "Zeros"}, "kernel_size": [3, 3], "bias_regularizer": null, "kernel_regularizer": {"config": {"l1": 0.0, "l2": 0.00019999999494757503}, "class_name": "L1L2"}, "name": "conv2/3x3", "bias_constraint": null, "strides": [1, 1]}, "name": "conv2/3x3", "class_name": "Conv2D", "inbound_nodes": [[["conv2/3x3_reduce", 0, 0, {}]]]}, {"config": {"padding": "same", "name": "pool2/3x3_s2", "strides": [2, 2], "trainable": true, "pool_size": [3, 3], "data_format": "channels_last"}, "name": "pool2/3x3_s2", "class_name": "MaxPooling2D", "inbound_nodes": [[["conv2/3x3", 0, 0, {}]]]}, {"config": {"activation": "relu", "dilation_rate": [1, 1], "kernel_initializer": {"config": {"seed": null, "mode": "fan_avg", "distribution": "uniform", "scale": 1.0}, "class_name": "VarianceScaling"}, "kernel_constraint": null, "trainable": true, "activity_regularizer": null, "filters": 96, "data_format": "channels_last", "padding": "same", "use_bias": true, "bias_initializer": {"config": {}, "class_name": "Zeros"}, "kernel_size": [1, 1], "bias_regularizer": null, "kernel_regularizer": {"config": {"l1": 0.0, "l2": 0.00019999999494757503}, "class_name": "L1L2"}, "name": "inception_3a/3x3_reduce", "bias_constraint": null, "strides": [1, 1]}, "name": "inception_3a/3x3_reduce", "class_name": "Conv2D", "inbound_nodes": [[["pool2/3x3_s2", 0, 0, {}]]]}, {"config": {"activation": "relu", "dilation_rate": [1, 1], "kernel_initializer": {"config": {"seed": null, "mode": "fan_avg", "distribution": "uniform", "scale": 1.0}, "class_name": "VarianceScaling"}, "kernel_constraint": null, "trainable": true, "activity_regularizer": null, "filters": 16, "data_format": "channels_last", "padding": "same", "use_bias": true, "bias_initializer": {"config": {}, "class_name": "Zeros"}, "kernel_size": [1, 1], "bias_regularizer": null, "kernel_regularizer": {"config": {"l1": 0.0, "l2": 0.00019999999494757503}, "class_name": "L1L2"}, "name": "inception_3a/5x5_reduce", "bias_constraint": null, "strides": [1, 1]}, "name": "inception_3a/5x5_reduce", "class_name": "Conv2D", "inbound_nodes": [[["pool2/3x3_s2", 0, 0, {}]]]}, {"config": {"padding": "same", "name": "inception_3a/pool", "strides": [1, 1], "trainable": true, "pool_size": [3, 3], "data_format": "channels_last"}, "name": "inception_3a/pool", "class_name": "MaxPooling2D", "inbound_nodes": [[["pool2/3x3_s2", 0, 0, {}]]]}, {"config": {"activation": "relu", "dilation_rate": [1, 1], "kernel_initializer": {"config": {"seed": null, "mode": "fan_avg", "distribution": "uniform", "scale": 1.0}, "class_name": "VarianceScaling"}, "kernel_constraint": null, "trainable": true, "activity_regularizer": null, "filters": 64, "data_format": "channels_last", "padding": "same", "use_bias": true, "bias_initializer": {"config": {}, "class_name": "Zeros"}, "kernel_size": [1, 1], "bias_regularizer": null, "kernel_regularizer": {"config": {"l1": 0.0, "l2": 0.00019999999494757503}, "class_name": "L1L2"}, "name": "inception_3a/1x1", "bias_constraint": null, "strides": [1, 1]}, "name": "inception_3a/1x1", "class_name": "Conv2D", "inbound_nodes": [[["pool2/3x3_s2", 0, 0, {}]]]}, {"config": {"activation": "relu", "dilation_rate": [1, 1], "kernel_initializer": {"config": {"seed": null, "mode": "fan_avg", "distribution": "uniform", "scale": 1.0}, "class_name": "VarianceScaling"}, "kernel_constraint": null, "trainable": true, "activity_regularizer": null, "filters": 128, "data_format": "channels_last", "padding": "same", "use_bias": true, "bias_initializer": {"config": {}, "class_name": "Zeros"}, "kernel_size": [3, 3], "bias_regularizer": null, "kernel_regularizer": {"config": {"l1": 0.0, "l2": 0.00019999999494757503}, "class_name": "L1L2"}, "name": "inception_3a/3x3", "bias_constraint": null, "strides": [1, 1]}, "name": "inception_3a/3x3", "class_name": "Conv2D", "inbound_nodes": [[["inception_3a/3x3_reduce", 0, 0, {}]]]}, {"config": {"activation": "relu", "dilation_rate": [1, 1], "kernel_initializer": {"config": {"seed": null, "mode": "fan_avg", "distribution": "uniform", "scale": 1.0}, "class_name": "VarianceScaling"}, "kernel_constraint": null, "trainable": true, "activity_regularizer": null, "filters": 32, "data_format": "channels_last", "padding": "same", "use_bias": true, "bias_initializer": {"config": {}, "class_name": "Zeros"}, "kernel_size": [5, 5], "bias_regularizer": null, "kernel_regularizer": {"config": {"l1": 0.0, "l2": 0.00019999999494757503}, "class_name": "L1L2"}, "name": "inception_3a/5x5", "bias_constraint": null, "strides": [1, 1]}, "name": "inception_3a/5x5", "class_name": "Conv2D", "inbound_nodes": [[["inception_3a/5x5_reduce", 0, 0, {}]]]}, {"config": {"activation": "relu", "dilation_rate": [1, 1], "kernel_initializer": {"config": {"seed": null, "mode": "fan_avg", "distribution": "uniform", "scale": 1.0}, "class_name": "VarianceScaling"}, "kernel_constraint": null, "trainable": true, "activity_regularizer": null, "filters": 32, "data_format": "channels_last", "padding": "same", "use_bias": true, "bias_initializer": {"config": {}, "class_name": "Zeros"}, "kernel_size": [1, 1], "bias_regularizer": null, "kernel_regularizer": {"config": {"l1": 0.0, "l2": 0.00019999999494757503}, "class_name": "L1L2"}, "name": "inception_3a/pool_proj", "bias_constraint": null, "strides": [1, 1]}, "name": "inception_3a/pool_proj", "class_name": "Conv2D", "inbound_nodes": [[["inception_3a/pool", 0, 0, {}]]]}, {"config": {"output_mask_type": "raw", "dot_axes": -1, "mode_type": "raw", "concat_axis": -1, "output_shape_type": "raw", "output_mask": null, "mode": "concat", "name": "inception_3a/output", "output_shape": null, "arguments": {}}, "name": "inception_3a/output", "class_name": "Merge", "inbound_nodes": [[["inception_3a/1x1", 0, 0, {}], ["inception_3a/3x3", 0, 0, {}], ["inception_3a/5x5", 0, 0, {}], ["inception_3a/pool_proj", 0, 0, {}]]]}, {"config": {"activation": "relu", "dilation_rate": [1, 1], "kernel_initializer": {"config": {"seed": null, "mode": "fan_avg", "distribution": "uniform", "scale": 1.0}, "class_name": "VarianceScaling"}, "kernel_constraint": null, "trainable": true, "activity_regularizer": null, "filters": 128, "data_format": "channels_last", "padding": "same", "use_bias": true, "bias_initializer": {"config": {}, "class_name": "Zeros"}, "kernel_size": [1, 1], "bias_regularizer": null, "kernel_regularizer": {"config": {"l1": 0.0, "l2": 0.00019999999494757503}, "class_name": "L1L2"}, "name": "inception_3b/3x3_reduce", "bias_constraint": null, "strides": [1, 1]}, "name": "inception_3b/3x3_reduce", "class_name": "Conv2D", "inbound_nodes": [[["inception_3a/output", 0, 0, {}]]]}, {"config": {"activation": "relu", "dilation_rate": [1, 1], "kernel_initializer": {"config": {"seed": null, "mode": "fan_avg", "distribution": "uniform", "scale": 1.0}, "class_name": "VarianceScaling"}, "kernel_constraint": null, "trainable": true, "activity_regularizer": null, "filters": 32, "data_format": "channels_last", "padding": "same", "use_bias": true, "bias_initializer": {"config": {}, "class_name": "Zeros"}, "kernel_size": [1, 1], "bias_regularizer": null, "kernel_regularizer": {"config": {"l1": 0.0, "l2": 0.00019999999494757503}, "class_name": "L1L2"}, "name": "inception_3b/5x5_reduce", "bias_constraint": null, "strides": [1, 1]}, "name": "inception_3b/5x5_reduce", "class_name": "Conv2D", "inbound_nodes": [[["inception_3a/output", 0, 0, {}]]]}, {"config": {"padding": "same", "name": "inception_3b/pool", "strides": [1, 1], "trainable": true, "pool_size": [3, 3], "data_format": "channels_last"}, "name": "inception_3b/pool", "class_name": "MaxPooling2D", "inbound_nodes": [[["inception_3a/output", 0, 0, {}]]]}, {"config": {"activation": "relu", "dilation_rate": [1, 1], "kernel_initializer": {"config": {"seed": null, "mode": "fan_avg", "distribution": "uniform", "scale": 1.0}, "class_name": "VarianceScaling"}, "kernel_constraint": null, "trainable": true, "activity_regularizer": null, "filters": 128, "data_format": "channels_last", "padding": "same", "use_bias": true, "bias_initializer": {"config": {}, "class_name": "Zeros"}, "kernel_size": [1, 1], "bias_regularizer": null, "kernel_regularizer": {"config": {"l1": 0.0, "l2": 0.00019999999494757503}, "class_name": "L1L2"}, "name": "inception_3b/1x1", "bias_constraint": null, "strides": [1, 1]}, "name": "inception_3b/1x1", "class_name": "Conv2D", "inbound_nodes": [[["inception_3a/output", 0, 0, {}]]]}, {"config": {"activation": "relu", "dilation_rate": [1, 1], "kernel_initializer": {"config": {"seed": null, "mode": "fan_avg", "distribution": "uniform", "scale": 1.0}, "class_name": "VarianceScaling"}, "kernel_constraint": null, "trainable": true, "activity_regularizer": null, "filters": 192, "data_format": "channels_last", "padding": "same", "use_bias": true, "bias_initializer": {"config": {}, "class_name": "Zeros"}, "kernel_size": [3, 3], "bias_regularizer": null, "kernel_regularizer": {"config": {"l1": 0.0, "l2": 0.00019999999494757503}, "class_name": "L1L2"}, "name": "inception_3b/3x3", "bias_constraint": null, "strides": [1, 1]}, "name": "inception_3b/3x3", "class_name": "Conv2D", "inbound_nodes": [[["inception_3b/3x3_reduce", 0, 0, {}]]]}, {"config": {"activation": "relu", "dilation_rate": [1, 1], "kernel_initializer": {"config": {"seed": null, "mode": "fan_avg", "distribution": "uniform", "scale": 1.0}, "class_name": "VarianceScaling"}, "kernel_constraint": null, "trainable": true, "activity_regularizer": null, "filters": 96, "data_format": "channels_last", "padding": "same", "use_bias": true, "bias_initializer": {"config": {}, "class_name": "Zeros"}, "kernel_size": [5, 5], "bias_regularizer": null, "kernel_regularizer": {"config": {"l1": 0.0, "l2": 0.00019999999494757503}, "class_name": "L1L2"}, "name": "inception_3b/5x5", "bias_constraint": null, "strides": [1, 1]}, "name": "inception_3b/5x5", "class_name": "Conv2D", "inbound_nodes": [[["inception_3b/5x5_reduce", 0, 0, {}]]]}, {"config": {"activation": "relu", "dilation_rate": [1, 1], "kernel_initializer": {"config": {"seed": null, "mode": "fan_avg", "distribution": "uniform", "scale": 1.0}, "class_name": "VarianceScaling"}, "kernel_constraint": null, "trainable": true, "activity_regularizer": null, "filters": 64, "data_format": "channels_last", "padding": "same", "use_bias": true, "bias_initializer": {"config": {}, "class_name": "Zeros"}, "kernel_size": [1, 1], "bias_regularizer": null, "kernel_regularizer": {"config": {"l1": 0.0, "l2": 0.00019999999494757503}, "class_name": "L1L2"}, "name": "inception_3b/pool_proj", "bias_constraint": null, "strides": [1, 1]}, "name": "inception_3b/pool_proj", "class_name": "Conv2D", "inbound_nodes": [[["inception_3b/pool", 0, 0, {}]]]}, {"config": {"output_mask_type": "raw", "dot_axes": -1, "mode_type": "raw", "concat_axis": -1, "output_shape_type": "raw", "output_mask": null, "mode": "concat", "name": "inception_3b/output", "output_shape": null, "arguments": {}}, "name": "inception_3b/output", "class_name": "Merge", "inbound_nodes": [[["inception_3b/1x1", 0, 0, {}], ["inception_3b/3x3", 0, 0, {}], ["inception_3b/5x5", 0, 0, {}], ["inception_3b/pool_proj", 0, 0, {}]]]}, {"config": {"padding": "same", "name": "pool3/3x3_s2", "strides": [2, 2], "trainable": true, "pool_size": [3, 3], "data_format": "channels_last"}, "name": "pool3/3x3_s2", "class_name": "MaxPooling2D", "inbound_nodes": [[["inception_3b/output", 0, 0, {}]]]}, {"config": {"activation": "relu", "dilation_rate": [1, 1], "kernel_initializer": {"config": {"seed": null, "mode": "fan_avg", "distribution": "uniform", "scale": 1.0}, "class_name": "VarianceScaling"}, "kernel_constraint": null, "trainable": true, "activity_regularizer": null, "filters": 96, "data_format": "channels_last", "padding": "same", "use_bias": true, "bias_initializer": {"config": {}, "class_name": "Zeros"}, "kernel_size": [1, 1], "bias_regularizer": null, "kernel_regularizer": {"config": {"l1": 0.0, "l2": 0.00019999999494757503}, "class_name": "L1L2"}, "name": "inception_4a/3x3_reduce", "bias_constraint": null, "strides": [1, 1]}, "name": "inception_4a/3x3_reduce", "class_name": "Conv2D", "inbound_nodes": [[["pool3/3x3_s2", 0, 0, {}]]]}, {"config": {"activation": "relu", "dilation_rate": [1, 1], "kernel_initializer": {"config": {"seed": null, "mode": "fan_avg", "distribution": "uniform", "scale": 1.0}, "class_name": "VarianceScaling"}, "kernel_constraint": null, "trainable": true, "activity_regularizer": null, "filters": 16, "data_format": "channels_last", "padding": "same", "use_bias": true, "bias_initializer": {"config": {}, "class_name": "Zeros"}, "kernel_size": [1, 1], "bias_regularizer": null, "kernel_regularizer": {"config": {"l1": 0.0, "l2": 0.00019999999494757503}, "class_name": "L1L2"}, "name": "inception_4a/5x5_reduce", "bias_constraint": null, "strides": [1, 1]}, "name": "inception_4a/5x5_reduce", "class_name": "Conv2D", "inbound_nodes": [[["pool3/3x3_s2", 0, 0, {}]]]}, {"config": {"padding": "same", "name": "inception_4a/pool", "strides": [1, 1], "trainable": true, "pool_size": [3, 3], "data_format": "channels_last"}, "name": "inception_4a/pool", "class_name": "MaxPooling2D", "inbound_nodes": [[["pool3/3x3_s2", 0, 0, {}]]]}, {"config": {"activation": "relu", "dilation_rate": [1, 1], "kernel_initializer": {"config": {"seed": null, "mode": "fan_avg", "distribution": "uniform", "scale": 1.0}, "class_name": "VarianceScaling"}, "kernel_constraint": null, "trainable": true, "activity_regularizer": null, "filters": 192, "data_format": "channels_last", "padding": "same", "use_bias": true, "bias_initializer": {"config": {}, "class_name": "Zeros"}, "kernel_size": [1, 1], "bias_regularizer": null, "kernel_regularizer": {"config": {"l1": 0.0, "l2": 0.00019999999494757503}, "class_name": "L1L2"}, "name": "inception_4a/1x1", "bias_constraint": null, "strides": [1, 1]}, "name": "inception_4a/1x1", "class_name": "Conv2D", "inbound_nodes": [[["pool3/3x3_s2", 0, 0, {}]]]}, {"config": {"activation": "relu", "dilation_rate": [1, 1], "kernel_initializer": {"config": {"seed": null, "mode": "fan_avg", "distribution": "uniform", "scale": 1.0}, "class_name": "VarianceScaling"}, "kernel_constraint": null, "trainable": true, "activity_regularizer": null, "filters": 208, "data_format": "channels_last", "padding": "same", "use_bias": true, "bias_initializer": {"config": {}, "class_name": "Zeros"}, "kernel_size": [3, 3], "bias_regularizer": null, "kernel_regularizer": {"config": {"l1": 0.0, "l2": 0.00019999999494757503}, "class_name": "L1L2"}, "name": "inception_4a/3x3", "bias_constraint": null, "strides": [1, 1]}, "name": "inception_4a/3x3", "class_name": "Conv2D", "inbound_nodes": [[["inception_4a/3x3_reduce", 0, 0, {}]]]}, {"config": {"activation": "relu", "dilation_rate": [1, 1], "kernel_initializer": {"config": {"seed": null, "mode": "fan_avg", "distribution": "uniform", "scale": 1.0}, "class_name": "VarianceScaling"}, "kernel_constraint": null, "trainable": true, "activity_regularizer": null, "filters": 48, "data_format": "channels_last", "padding": "same", "use_bias": true, "bias_initializer": {"config": {}, "class_name": "Zeros"}, "kernel_size": [5, 5], "bias_regularizer": null, "kernel_regularizer": {"config": {"l1": 0.0, "l2": 0.00019999999494757503}, "class_name": "L1L2"}, "name": "inception_4a/5x5", "bias_constraint": null, "strides": [1, 1]}, "name": "inception_4a/5x5", "class_name": "Conv2D", "inbound_nodes": [[["inception_4a/5x5_reduce", 0, 0, {}]]]}, {"config": {"activation": "relu", "dilation_rate": [1, 1], "kernel_initializer": {"config": {"seed": null, "mode": "fan_avg", "distribution": "uniform", "scale": 1.0}, "class_name": "VarianceScaling"}, "kernel_constraint": null, "trainable": true, "activity_regularizer": null, "filters": 64, "data_format": "channels_last", "padding": "same", "use_bias": true, "bias_initializer": {"config": {}, "class_name": "Zeros"}, "kernel_size": [1, 1], "bias_regularizer": null, "kernel_regularizer": {"config": {"l1": 0.0, "l2": 0.00019999999494757503}, "class_name": "L1L2"}, "name": "inception_4a/pool_proj", "bias_constraint": null, "strides": [1, 1]}, "name": "inception_4a/pool_proj", "class_name": "Conv2D", "inbound_nodes": [[["inception_4a/pool", 0, 0, {}]]]}, {"config": {"output_mask_type": "raw", "dot_axes": -1, "mode_type": "raw", "concat_axis": -1, "output_shape_type": "raw", "output_mask": null, "mode": "concat", "name": "inception_4a/output", "output_shape": null, "arguments": {}}, "name": "inception_4a/output", "class_name": "Merge", "inbound_nodes": [[["inception_4a/1x1", 0, 0, {}], ["inception_4a/3x3", 0, 0, {}], ["inception_4a/5x5", 0, 0, {}], ["inception_4a/pool_proj", 0, 0, {}]]]}, {"config": {"activation": "relu", "dilation_rate": [1, 1], "kernel_initializer": {"config": {"seed": null, "mode": "fan_avg", "distribution": "uniform", "scale": 1.0}, "class_name": "VarianceScaling"}, "kernel_constraint": null, "trainable": true, "activity_regularizer": null, "filters": 112, "data_format": "channels_last", "padding": "same", "use_bias": true, "bias_initializer": {"config": {}, "class_name": "Zeros"}, "kernel_size": [1, 1], "bias_regularizer": null, "kernel_regularizer": {"config": {"l1": 0.0, "l2": 0.00019999999494757503}, "class_name": "L1L2"}, "name": "inception_4b/3x3_reduce", "bias_constraint": null, "strides": [1, 1]}, "name": "inception_4b/3x3_reduce", "class_name": "Conv2D", "inbound_nodes": [[["inception_4a/output", 0, 0, {}]]]}, {"config": {"activation": "relu", "dilation_rate": [1, 1], "kernel_initializer": {"config": {"seed": null, "mode": "fan_avg", "distribution": "uniform", "scale": 1.0}, "class_name": "VarianceScaling"}, "kernel_constraint": null, "trainable": true, "activity_regularizer": null, "filters": 24, "data_format": "channels_last", "padding": "same", "use_bias": true, "bias_initializer": {"config": {}, "class_name": "Zeros"}, "kernel_size": [1, 1], "bias_regularizer": null, "kernel_regularizer": {"config": {"l1": 0.0, "l2": 0.00019999999494757503}, "class_name": "L1L2"}, "name": "inception_4b/5x5_reduce", "bias_constraint": null, "strides": [1, 1]}, "name": "inception_4b/5x5_reduce", "class_name": "Conv2D", "inbound_nodes": [[["inception_4a/output", 0, 0, {}]]]}, {"config": {"padding": "same", "name": "inception_4b/pool", "strides": [1, 1], "trainable": true, "pool_size": [3, 3], "data_format": "channels_last"}, "name": "inception_4b/pool", "class_name": "MaxPooling2D", "inbound_nodes": [[["inception_4a/output", 0, 0, {}]]]}, {"config": {"activation": "relu", "dilation_rate": [1, 1], "kernel_initializer": {"config": {"seed": null, "mode": "fan_avg", "distribution": "uniform", "scale": 1.0}, "class_name": "VarianceScaling"}, "kernel_constraint": null, "trainable": true, "activity_regularizer": null, "filters": 160, "data_format": "channels_last", "padding": "same", "use_bias": true, "bias_initializer": {"config": {}, "class_name": "Zeros"}, "kernel_size": [1, 1], "bias_regularizer": null, "kernel_regularizer": {"config": {"l1": 0.0, "l2": 0.00019999999494757503}, "class_name": "L1L2"}, "name": "inception_4b/1x1", "bias_constraint": null, "strides": [1, 1]}, "name": "inception_4b/1x1", "class_name": "Conv2D", "inbound_nodes": [[["inception_4a/output", 0, 0, {}]]]}, {"config": {"activation": "relu", "dilation_rate": [1, 1], "kernel_initializer": {"config": {"seed": null, "mode": "fan_avg", "distribution": "uniform", "scale": 1.0}, "class_name": "VarianceScaling"}, "kernel_constraint": null, "trainable": true, "activity_regularizer": null, "filters": 224, "data_format": "channels_last", "padding": "same", "use_bias": true, "bias_initializer": {"config": {}, "class_name": "Zeros"}, "kernel_size": [3, 3], "bias_regularizer": null, "kernel_regularizer": {"config": {"l1": 0.0, "l2": 0.00019999999494757503}, "class_name": "L1L2"}, "name": "inception_4b/3x3", "bias_constraint": null, "strides": [1, 1]}, "name": "inception_4b/3x3", "class_name": "Conv2D", "inbound_nodes": [[["inception_4b/3x3_reduce", 0, 0, {}]]]}, {"config": {"activation": "relu", "dilation_rate": [1, 1], "kernel_initializer": {"config": {"seed": null, "mode": "fan_avg", "distribution": "uniform", "scale": 1.0}, "class_name": "VarianceScaling"}, "kernel_constraint": null, "trainable": true, "activity_regularizer": null, "filters": 64, "data_format": "channels_last", "padding": "same", "use_bias": true, "bias_initializer": {"config": {}, "class_name": "Zeros"}, "kernel_size": [5, 5], "bias_regularizer": null, "kernel_regularizer": {"config": {"l1": 0.0, "l2": 0.00019999999494757503}, "class_name": "L1L2"}, "name": "inception_4b/5x5", "bias_constraint": null, "strides": [1, 1]}, "name": "inception_4b/5x5", "class_name": "Conv2D", "inbound_nodes": [[["inception_4b/5x5_reduce", 0, 0, {}]]]}, {"config": {"activation": "relu", "dilation_rate": [1, 1], "kernel_initializer": {"config": {"seed": null, "mode": "fan_avg", "distribution": "uniform", "scale": 1.0}, "class_name": "VarianceScaling"}, "kernel_constraint": null, "trainable": true, "activity_regularizer": null, "filters": 64, "data_format": "channels_last", "padding": "same", "use_bias": true, "bias_initializer": {"config": {}, "class_name": "Zeros"}, "kernel_size": [1, 1], "bias_regularizer": null, "kernel_regularizer": {"config": {"l1": 0.0, "l2": 0.00019999999494757503}, "class_name": "L1L2"}, "name": "inception_4b/pool_proj", "bias_constraint": null, "strides": [1, 1]}, "name": "inception_4b/pool_proj", "class_name": "Conv2D", "inbound_nodes": [[["inception_4b/pool", 0, 0, {}]]]}, {"config": {"output_mask_type": "raw", "dot_axes": -1, "mode_type": "raw", "concat_axis": -1, "output_shape_type": "raw", "output_mask": null, "mode": "concat", "name": "inception_4b_output", "output_shape": null, "arguments": {}}, "name": "inception_4b_output", "class_name": "Merge", "inbound_nodes": [[["inception_4b/1x1", 0, 0, {}], ["inception_4b/3x3", 0, 0, {}], ["inception_4b/5x5", 0, 0, {}], ["inception_4b/pool_proj", 0, 0, {}]]]}, {"config": {"activation": "relu", "dilation_rate": [1, 1], "kernel_initializer": {"config": {"seed": null, "mode": "fan_avg", "distribution": "uniform", "scale": 1.0}, "class_name": "VarianceScaling"}, "kernel_constraint": null, "trainable": true, "activity_regularizer": null, "filters": 128, "data_format": "channels_last", "padding": "same", "use_bias": true, "bias_initializer": {"config": {}, "class_name": "Zeros"}, "kernel_size": [1, 1], "bias_regularizer": null, "kernel_regularizer": {"config": {"l1": 0.0, "l2": 0.00019999999494757503}, "class_name": "L1L2"}, "name": "inception_4c/3x3_reduce", "bias_constraint": null, "strides": [1, 1]}, "name": "inception_4c/3x3_reduce", "class_name": "Conv2D", "inbound_nodes": [[["inception_4b_output", 0, 0, {}]]]}, {"config": {"activation": "relu", "dilation_rate": [1, 1], "kernel_initializer": {"config": {"seed": null, "mode": "fan_avg", "distribution": "uniform", "scale": 1.0}, "class_name": "VarianceScaling"}, "kernel_constraint": null, "trainable": true, "activity_regularizer": null, "filters": 24, "data_format": "channels_last", "padding": "same", "use_bias": true, "bias_initializer": {"config": {}, "class_name": "Zeros"}, "kernel_size": [1, 1], "bias_regularizer": null, "kernel_regularizer": {"config": {"l1": 0.0, "l2": 0.00019999999494757503}, "class_name": "L1L2"}, "name": "inception_4c/5x5_reduce", "bias_constraint": null, "strides": [1, 1]}, "name": "inception_4c/5x5_reduce", "class_name": "Conv2D", "inbound_nodes": [[["inception_4b_output", 0, 0, {}]]]}, {"config": {"padding": "same", "name": "inception_4c/pool", "strides": [1, 1], "trainable": true, "pool_size": [3, 3], "data_format": "channels_last"}, "name": "inception_4c/pool", "class_name": "MaxPooling2D", "inbound_nodes": [[["inception_4b_output", 0, 0, {}]]]}, {"config": {"activation": "relu", "dilation_rate": [1, 1], "kernel_initializer": {"config": {"seed": null, "mode": "fan_avg", "distribution": "uniform", "scale": 1.0}, "class_name": "VarianceScaling"}, "kernel_constraint": null, "trainable": true, "activity_regularizer": null, "filters": 128, "data_format": "channels_last", "padding": "same", "use_bias": true, "bias_initializer": {"config": {}, "class_name": "Zeros"}, "kernel_size": [1, 1], "bias_regularizer": null, "kernel_regularizer": {"config": {"l1": 0.0, "l2": 0.00019999999494757503}, "class_name": "L1L2"}, "name": "inception_4c/1x1", "bias_constraint": null, "strides": [1, 1]}, "name": "inception_4c/1x1", "class_name": "Conv2D", "inbound_nodes": [[["inception_4b_output", 0, 0, {}]]]}, {"config": {"activation": "relu", "dilation_rate": [1, 1], "kernel_initializer": {"config": {"seed": null, "mode": "fan_avg", "distribution": "uniform", "scale": 1.0}, "class_name": "VarianceScaling"}, "kernel_constraint": null, "trainable": true, "activity_regularizer": null, "filters": 256, "data_format": "channels_last", "padding": "same", "use_bias": true, "bias_initializer": {"config": {}, "class_name": "Zeros"}, "kernel_size": [3, 3], "bias_regularizer": null, "kernel_regularizer": {"config": {"l1": 0.0, "l2": 0.00019999999494757503}, "class_name": "L1L2"}, "name": "inception_4c/3x3", "bias_constraint": null, "strides": [1, 1]}, "name": "inception_4c/3x3", "class_name": "Conv2D", "inbound_nodes": [[["inception_4c/3x3_reduce", 0, 0, {}]]]}, {"config": {"activation": "relu", "dilation_rate": [1, 1], "kernel_initializer": {"config": {"seed": null, "mode": "fan_avg", "distribution": "uniform", "scale": 1.0}, "class_name": "VarianceScaling"}, "kernel_constraint": null, "trainable": true, "activity_regularizer": null, "filters": 64, "data_format": "channels_last", "padding": "same", "use_bias": true, "bias_initializer": {"config": {}, "class_name": "Zeros"}, "kernel_size": [5, 5], "bias_regularizer": null, "kernel_regularizer": {"config": {"l1": 0.0, "l2": 0.00019999999494757503}, "class_name": "L1L2"}, "name": "inception_4c/5x5", "bias_constraint": null, "strides": [1, 1]}, "name": "inception_4c/5x5", "class_name": "Conv2D", "inbound_nodes": [[["inception_4c/5x5_reduce", 0, 0, {}]]]}, {"config": {"activation": "relu", "dilation_rate": [1, 1], "kernel_initializer": {"config": {"seed": null, "mode": "fan_avg", "distribution": "uniform", "scale": 1.0}, "class_name": "VarianceScaling"}, "kernel_constraint": null, "trainable": true, "activity_regularizer": null, "filters": 64, "data_format": "channels_last", "padding": "same", "use_bias": true, "bias_initializer": {"config": {}, "class_name": "Zeros"}, "kernel_size": [1, 1], "bias_regularizer": null, "kernel_regularizer": {"config": {"l1": 0.0, "l2": 0.00019999999494757503}, "class_name": "L1L2"}, "name": "inception_4c/pool_proj", "bias_constraint": null, "strides": [1, 1]}, "name": "inception_4c/pool_proj", "class_name": "Conv2D", "inbound_nodes": [[["inception_4c/pool", 0, 0, {}]]]}, {"config": {"output_mask_type": "raw", "dot_axes": -1, "mode_type": "raw", "concat_axis": -1, "output_shape_type": "raw", "output_mask": null, "mode": "concat", "name": "inception_4c/output", "output_shape": null, "arguments": {}}, "name": "inception_4c/output", "class_name": "Merge", "inbound_nodes": [[["inception_4c/1x1", 0, 0, {}], ["inception_4c/3x3", 0, 0, {}], ["inception_4c/5x5", 0, 0, {}], ["inception_4c/pool_proj", 0, 0, {}]]]}, {"config": {"activation": "relu", "dilation_rate": [1, 1], "kernel_initializer": {"config": {"seed": null, "mode": "fan_avg", "distribution": "uniform", "scale": 1.0}, "class_name": "VarianceScaling"}, "kernel_constraint": null, "trainable": true, "activity_regularizer": null, "filters": 144, "data_format": "channels_last", "padding": "same", "use_bias": true, "bias_initializer": {"config": {}, "class_name": "Zeros"}, "kernel_size": [1, 1], "bias_regularizer": null, "kernel_regularizer": {"config": {"l1": 0.0, "l2": 0.00019999999494757503}, "class_name": "L1L2"}, "name": "inception_4d/3x3_reduce", "bias_constraint": null, "strides": [1, 1]}, "name": "inception_4d/3x3_reduce", "class_name": "Conv2D", "inbound_nodes": [[["inception_4c/output", 0, 0, {}]]]}, {"config": {"activation": "relu", "dilation_rate": [1, 1], "kernel_initializer": {"config": {"seed": null, "mode": "fan_avg", "distribution": "uniform", "scale": 1.0}, "class_name": "VarianceScaling"}, "kernel_constraint": null, "trainable": true, "activity_regularizer": null, "filters": 32, "data_format": "channels_last", "padding": "same", "use_bias": true, "bias_initializer": {"config": {}, "class_name": "Zeros"}, "kernel_size": [1, 1], "bias_regularizer": null, "kernel_regularizer": {"config": {"l1": 0.0, "l2": 0.00019999999494757503}, "class_name": "L1L2"}, "name": "inception_4d/5x5_reduce", "bias_constraint": null, "strides": [1, 1]}, "name": "inception_4d/5x5_reduce", "class_name": "Conv2D", "inbound_nodes": [[["inception_4c/output", 0, 0, {}]]]}, {"config": {"padding": "same", "name": "inception_4d/pool", "strides": [1, 1], "trainable": true, "pool_size": [3, 3], "data_format": "channels_last"}, "name": "inception_4d/pool", "class_name": "MaxPooling2D", "inbound_nodes": [[["inception_4c/output", 0, 0, {}]]]}, {"config": {"activation": "relu", "dilation_rate": [1, 1], "kernel_initializer": {"config": {"seed": null, "mode": "fan_avg", "distribution": "uniform", "scale": 1.0}, "class_name": "VarianceScaling"}, "kernel_constraint": null, "trainable": true, "activity_regularizer": null, "filters": 112, "data_format": "channels_last", "padding": "same", "use_bias": true, "bias_initializer": {"config": {}, "class_name": "Zeros"}, "kernel_size": [1, 1], "bias_regularizer": null, "kernel_regularizer": {"config": {"l1": 0.0, "l2": 0.00019999999494757503}, "class_name": "L1L2"}, "name": "inception_4d/1x1", "bias_constraint": null, "strides": [1, 1]}, "name": "inception_4d/1x1", "class_name": "Conv2D", "inbound_nodes": [[["inception_4c/output", 0, 0, {}]]]}, {"config": {"activation": "relu", "dilation_rate": [1, 1], "kernel_initializer": {"config": {"seed": null, "mode": "fan_avg", "distribution": "uniform", "scale": 1.0}, "class_name": "VarianceScaling"}, "kernel_constraint": null, "trainable": true, "activity_regularizer": null, "filters": 288, "data_format": "channels_last", "padding": "same", "use_bias": true, "bias_initializer": {"config": {}, "class_name": "Zeros"}, "kernel_size": [3, 3], "bias_regularizer": null, "kernel_regularizer": {"config": {"l1": 0.0, "l2": 0.00019999999494757503}, "class_name": "L1L2"}, "name": "inception_4d/3x3", "bias_constraint": null, "strides": [1, 1]}, "name": "inception_4d/3x3", "class_name": "Conv2D", "inbound_nodes": [[["inception_4d/3x3_reduce", 0, 0, {}]]]}, {"config": {"activation": "relu", "dilation_rate": [1, 1], "kernel_initializer": {"config": {"seed": null, "mode": "fan_avg", "distribution": "uniform", "scale": 1.0}, "class_name": "VarianceScaling"}, "kernel_constraint": null, "trainable": true, "activity_regularizer": null, "filters": 64, "data_format": "channels_last", "padding": "same", "use_bias": true, "bias_initializer": {"config": {}, "class_name": "Zeros"}, "kernel_size": [5, 5], "bias_regularizer": null, "kernel_regularizer": {"config": {"l1": 0.0, "l2": 0.00019999999494757503}, "class_name": "L1L2"}, "name": "inception_4d/5x5", "bias_constraint": null, "strides": [1, 1]}, "name": "inception_4d/5x5", "class_name": "Conv2D", "inbound_nodes": [[["inception_4d/5x5_reduce", 0, 0, {}]]]}, {"config": {"activation": "relu", "dilation_rate": [1, 1], "kernel_initializer": {"config": {"seed": null, "mode": "fan_avg", "distribution": "uniform", "scale": 1.0}, "class_name": "VarianceScaling"}, "kernel_constraint": null, "trainable": true, "activity_regularizer": null, "filters": 64, "data_format": "channels_last", "padding": "same", "use_bias": true, "bias_initializer": {"config": {}, "class_name": "Zeros"}, "kernel_size": [1, 1], "bias_regularizer": null, "kernel_regularizer": {"config": {"l1": 0.0, "l2": 0.00019999999494757503}, "class_name": "L1L2"}, "name": "inception_4d/pool_proj", "bias_constraint": null, "strides": [1, 1]}, "name": "inception_4d/pool_proj", "class_name": "Conv2D", "inbound_nodes": [[["inception_4d/pool", 0, 0, {}]]]}, {"config": {"output_mask_type": "raw", "dot_axes": -1, "mode_type": "raw", "concat_axis": -1, "output_shape_type": "raw", "output_mask": null, "mode": "concat", "name": "inception_4d/output", "output_shape": null, "arguments": {}}, "name": "inception_4d/output", "class_name": "Merge", "inbound_nodes": [[["inception_4d/1x1", 0, 0, {}], ["inception_4d/3x3", 0, 0, {}], ["inception_4d/5x5", 0, 0, {}], ["inception_4d/pool_proj", 0, 0, {}]]]}, {"config": {"padding": "valid", "name": "loss2/ave_pool", "strides": [3, 3], "trainable": true, "pool_size": [5, 5], "data_format": "channels_last"}, "name": "loss2/ave_pool", "class_name": "AveragePooling2D", "inbound_nodes": [[["inception_4d/output", 0, 0, {}]]]}, {"config": {"activation": "relu", "dilation_rate": [1, 1], "kernel_initializer": {"config": {"seed": null, "mode": "fan_avg", "distribution": "uniform", "scale": 1.0}, "class_name": "VarianceScaling"}, "kernel_constraint": null, "trainable": true, "activity_regularizer": null, "filters": 128, "data_format": "channels_last", "padding": "same", "use_bias": true, "bias_initializer": {"config": {}, "class_name": "Zeros"}, "kernel_size": [1, 1], "bias_regularizer": null, "kernel_regularizer": {"config": {"l1": 0.0, "l2": 0.00019999999494757503}, "class_name": "L1L2"}, "name": "loss2/conv", "bias_constraint": null, "strides": [1, 1]}, "name": "loss2/conv", "class_name": "Conv2D", "inbound_nodes": [[["loss2/ave_pool", 0, 0, {}]]]}], "output_layers": [["loss2/conv", 0, 0]], "input_layers": [["input_1", 0, 0]]}, "class_name": "Model"}, {"config": {"name": "flatten_1", "trainable": true}, "class_name": "Flatten"}, {"config": {"units": 512, "activation": "relu", "kernel_initializer": {"config": {"seed": null, "mode": "fan_avg", "distribution": "uniform", "scale": 1.0}, "class_name": "VarianceScaling"}, "trainable": true, "activity_regularizer": null, "kernel_constraint": null, "use_bias": true, "bias_initializer": {"config": {}, "class_name": "Zeros"}, "bias_regularizer": null, "kernel_regularizer": {"config": {"l1": 0.0, "l2": 0.00019999999494757503}, "class_name": "L1L2"}, "name": "dense_1", "bias_constraint": null}, "class_name": "Dense"}, {"config": {"seed": null, "name": "dropout_1", "noise_shape": null, "trainable": true, "rate": 0.7}, "class_name": "Dropout"}, {"config": {"units": 8, "activation": "softmax", "kernel_initializer": {"config": {"seed": null, "mode": "fan_avg", "distribution": "uniform", "scale": 1.0}, "class_name": "VarianceScaling"}, "trainable": true, "activity_regularizer": null, "kernel_constraint": null, "use_bias": true, "bias_initializer": {"config": {}, "class_name": "Zeros"}, "bias_regularizer": null, "kernel_regularizer": null, "name": "dense_2", "bias_constraint": null}, "class_name": "Dense"}], "backend": "tensorflow", "class_name": "Sequential"}